…
I0121 01:14:05.625560 14881 net.cpp:339] The NetState phase (0) differed from the phase (1) specified by a rule in layer nuclei
I0121 01:14:05.625578 14881 net.cpp:339] The NetState phase (0) differed from the phase (1) specified by a rule in layer accuracy
I0121 01:14:05.625682 14881 net.cpp:50] Initializing net from parameters: 
name: "NUCLEI_three_class"
state {
  phase: TRAIN
}
layer {
  name: "nuclei"
  type: "ImageData"
  top: "data"
  top: "label"
  include {
    phase: TRAIN
  }
  image_data_param {
    source: "/home/sanuj/Projects/nuclei-net/data/training-data/78_RLM_YR4_3_class/train.txt"
    batch_size: 100
  }
}
layer {
  name: "conv1"
  type: "Convolution"
  bottom: "data"
  top: "conv1"
  param {
    lr_mult: 0.1
  }
  param {
    lr_mult: 0.2
  }
  convolution_param {
    num_output: 24
    pad: 0
    kernel_size: 4
    stride: 1
    weight_filler {
      type: "gaussian"
      std: 0.0001
    }
    bias_filler {
      type: "constant"
    }
  }
}
layer {
  name: "pool1"
  type: "Pooling"
  bottom: "conv1"
  top: "pool1"
  pooling_param {
    pool: MAX
    kernel_size: 2
    stride: 2
  }
}
layer {
  name: "relu1"
  type: "ReLU"
  bottom: "pool1"
  top: "pool1"
}
layer {
  name: "conv2"
  type: "Convolution"
  bottom: "pool1"
  top: "conv2"
  param {
    lr_mult: 0.1
  }
  param {
    lr_mult: 0.2
  }
  convolution_param {
    num_output: 48
    pad: 0
    kernel_size: 6
    stride: 1
    weight_filler {
      type: "gaussian"
      std: 0.01
    }
    bias_filler {
      type: "constant"
    }
  }
}
layer {
  name: "relu2"
  type: "ReLU"
  bottom: "conv2"
  top: "conv2"
}
layer {
  name: "pool2"
  type: "Pooling"
  bottom: "conv2"
  top: "pool2"
  pooling_param {
    pool: MAX
    kernel_size: 2
    stride: 2
  }
}
layer {
  name: "ip_1"
  type: "InnerProduct"
  bottom: "pool2"
  top: "ip1"
  param {
    lr_mult: 1
  }
  param {
    lr_mult: 2
  }
  inner_product_param {
    num_output: 500
    weight_filler {
      type: "gaussian"
      std: 0.1
    }
    bias_filler {
      type: "constant"
    }
  }
}
layer {
  name: "relu1"
  type: "ReLU"
  bottom: "ip1"
  top: "ip1"
}
layer {
  name: "ip_2"
  type: "InnerProduct"
  bottom: "ip1"
  top: "ip2"
  param {
    lr_mult: 1
  }
  param {
    lr_mult: 2
  }
  inner_product_param {
    num_output: 3
    weight_filler {
      type: "gaussian"
      std: 0.1
    }
    bias_filler {
      type: "constant"
    }
  }
}
layer {
  name: "loss"
  type: "SoftmaxWithLoss"
  bottom: "ip2"
  bottom: "label"
  top: "loss"
}
I0121 01:14:05.625771 14881 layer_factory.hpp:76] Creating layer nuclei
I0121 01:14:05.625808 14881 net.cpp:110] Creating Layer nuclei
I0121 01:14:05.625819 14881 net.cpp:433] nuclei -> data
I0121 01:14:05.625847 14881 net.cpp:433] nuclei -> label
I0121 01:14:05.625872 14881 image_data_layer.cpp:37] Opening file /home/sanuj/Projects/nuclei-net/data/training-data/78_RLM_YR4_3_class/train.txt
I0121 01:14:05.775809 14881 image_data_layer.cpp:52] A total of 300000 images.
I0121 01:14:05.784284 14881 image_data_layer.cpp:79] output data size: 100,3,51,51
I0121 01:14:05.798882 14881 net.cpp:155] Setting up nuclei
I0121 01:14:05.798923 14881 net.cpp:163] Top shape: 100 3 51 51 (780300)
I0121 01:14:05.798933 14881 net.cpp:163] Top shape: 100 (100)
I0121 01:14:05.798944 14881 layer_factory.hpp:76] Creating layer conv1
I0121 01:14:05.798972 14881 net.cpp:110] Creating Layer conv1
I0121 01:14:05.798986 14881 net.cpp:477] conv1 <- data
I0121 01:14:05.799026 14881 net.cpp:433] conv1 -> conv1
I0121 01:14:05.800212 14881 net.cpp:155] Setting up conv1
I0121 01:14:05.800230 14881 net.cpp:163] Top shape: 100 24 48 48 (5529600)
I0121 01:14:05.800252 14881 layer_factory.hpp:76] Creating layer pool1
I0121 01:14:05.800272 14881 net.cpp:110] Creating Layer pool1
I0121 01:14:05.800282 14881 net.cpp:477] pool1 <- conv1
I0121 01:14:05.800292 14881 net.cpp:433] pool1 -> pool1
I0121 01:14:05.800336 14881 net.cpp:155] Setting up pool1
I0121 01:14:05.800345 14881 net.cpp:163] Top shape: 100 24 24 24 (1382400)
I0121 01:14:05.800353 14881 layer_factory.hpp:76] Creating layer relu1
I0121 01:14:05.800361 14881 net.cpp:110] Creating Layer relu1
I0121 01:14:05.800369 14881 net.cpp:477] relu1 <- pool1
I0121 01:14:05.800377 14881 net.cpp:419] relu1 -> pool1 (in-place)
I0121 01:14:05.800390 14881 net.cpp:155] Setting up relu1
I0121 01:14:05.800401 14881 net.cpp:163] Top shape: 100 24 24 24 (1382400)
I0121 01:14:05.800408 14881 layer_factory.hpp:76] Creating layer conv2
I0121 01:14:05.800422 14881 net.cpp:110] Creating Layer conv2
I0121 01:14:05.800431 14881 net.cpp:477] conv2 <- pool1
I0121 01:14:05.800439 14881 net.cpp:433] conv2 -> conv2
I0121 01:14:05.806219 14881 net.cpp:155] Setting up conv2
I0121 01:14:05.806298 14881 net.cpp:163] Top shape: 100 48 19 19 (1732800)
I0121 01:14:05.806326 14881 layer_factory.hpp:76] Creating layer relu2
I0121 01:14:05.806344 14881 net.cpp:110] Creating Layer relu2
I0121 01:14:05.806352 14881 net.cpp:477] relu2 <- conv2
I0121 01:14:05.806362 14881 net.cpp:419] relu2 -> conv2 (in-place)
I0121 01:14:05.806376 14881 net.cpp:155] Setting up relu2
I0121 01:14:05.806386 14881 net.cpp:163] Top shape: 100 48 19 19 (1732800)
I0121 01:14:05.806406 14881 layer_factory.hpp:76] Creating layer pool2
I0121 01:14:05.806416 14881 net.cpp:110] Creating Layer pool2
I0121 01:14:05.806423 14881 net.cpp:477] pool2 <- conv2
I0121 01:14:05.806434 14881 net.cpp:433] pool2 -> pool2
I0121 01:14:05.806488 14881 net.cpp:155] Setting up pool2
I0121 01:14:05.806498 14881 net.cpp:163] Top shape: 100 48 10 10 (480000)
I0121 01:14:05.806504 14881 layer_factory.hpp:76] Creating layer ip_1
I0121 01:14:05.806517 14881 net.cpp:110] Creating Layer ip_1
I0121 01:14:05.806526 14881 net.cpp:477] ip_1 <- pool2
I0121 01:14:05.806538 14881 net.cpp:433] ip_1 -> ip1
I0121 01:14:05.877686 14881 net.cpp:155] Setting up ip_1
I0121 01:14:05.877714 14881 net.cpp:163] Top shape: 100 500 (50000)
I0121 01:14:05.877743 14881 layer_factory.hpp:76] Creating layer relu1
I0121 01:14:05.877765 14881 net.cpp:110] Creating Layer relu1
I0121 01:14:05.877774 14881 net.cpp:477] relu1 <- ip1
I0121 01:14:05.877784 14881 net.cpp:419] relu1 -> ip1 (in-place)
I0121 01:14:05.877797 14881 net.cpp:155] Setting up relu1
I0121 01:14:05.877812 14881 net.cpp:163] Top shape: 100 500 (50000)
I0121 01:14:05.877820 14881 layer_factory.hpp:76] Creating layer ip_2
I0121 01:14:05.877831 14881 net.cpp:110] Creating Layer ip_2
I0121 01:14:05.877840 14881 net.cpp:477] ip_2 <- ip1
I0121 01:14:05.877848 14881 net.cpp:433] ip_2 -> ip2
I0121 01:14:05.877985 14881 net.cpp:155] Setting up ip_2
I0121 01:14:05.877993 14881 net.cpp:163] Top shape: 100 3 (300)
I0121 01:14:05.878013 14881 layer_factory.hpp:76] Creating layer loss
I0121 01:14:05.878023 14881 net.cpp:110] Creating Layer loss
I0121 01:14:05.878029 14881 net.cpp:477] loss <- ip2
I0121 01:14:05.878036 14881 net.cpp:477] loss <- label
I0121 01:14:05.878048 14881 net.cpp:433] loss -> loss
I0121 01:14:05.878063 14881 layer_factory.hpp:76] Creating layer loss
I0121 01:14:05.878159 14881 net.cpp:155] Setting up loss
…
I0121 01:14:05.878613 14881 solver.cpp:187] Creating test net (#0) specified by net file: /home/sanuj/Projects/nuclei-net/caffe-scripts/nuclei/three_class/arch_2/three_class_nuclei_train_test.prototxt
I0121 01:14:05.878648 14881 net.cpp:339] The NetState phase (1) differed from the phase (0) specified by a rule in layer nuclei
I0121 01:14:05.878752 14881 net.cpp:50] Initializing net from parameters: 
name: "NUCLEI_three_class"
state {
  phase: TEST
}
layer {
  name: "nuclei"
  type: "ImageData"
  top: "data"
  top: "label"
  include {
    phase: TEST
  }
  image_data_param {
    source: "/home/sanuj/Projects/nuclei-net/data/training-data/63_LLM_YR4_3_class/test.txt"
    batch_size: 200
  }
}
layer {
  name: "conv1"
  type: "Convolution"
  bottom: "data"
  top: "conv1"
  param {
    lr_mult: 0.1
  }
  param {
    lr_mult: 0.2
  }
  convolution_param {
    num_output: 24
    pad: 0
    kernel_size: 4
    stride: 1
    weight_filler {
      type: "gaussian"
      std: 0.0001
    }
    bias_filler {
      type: "constant"
    }
  }
}
layer {
  name: "pool1"
  type: "Pooling"
  bottom: "conv1"
  top: "pool1"
  pooling_param {
    pool: MAX
    kernel_size: 2
    stride: 2
  }
}
layer {
  name: "relu1"
  type: "ReLU"
  bottom: "pool1"
  top: "pool1"
}
layer {
  name: "conv2"
  type: "Convolution"
  bottom: "pool1"
  top: "conv2"
  param {
    lr_mult: 0.1
  }
  param {
    lr_mult: 0.2
  }
  convolution_param {
    num_output: 48
    pad: 0
    kernel_size: 6
    stride: 1
    weight_filler {
      type: "gaussian"
      std: 0.01
    }
    bias_filler {
      type: "constant"
    }
  }
}
layer {
  name: "relu2"
  type: "ReLU"
  bottom: "conv2"
  top: "conv2"
}
layer {
  name: "pool2"
  type: "Pooling"
  bottom: "conv2"
  top: "pool2"
  pooling_param {
    pool: MAX
    kernel_size: 2
    stride: 2
  }
}
layer {
  name: "ip_1"
  type: "InnerProduct"
  bottom: "pool2"
  top: "ip1"
  param {
    lr_mult: 1
  }
  param {
    lr_mult: 2
  }
  inner_product_param {
    num_output: 500
    weight_filler {
      type: "gaussian"
      std: 0.1
    }
    bias_filler {
      type: "constant"
    }
  }
}
layer {
  name: "relu1"
  type: "ReLU"
  bottom: "ip1"
  top: "ip1"
}
layer {
  name: "ip_2"
  type: "InnerProduct"
  bottom: "ip1"
  top: "ip2"
  param {
    lr_mult: 1
  }
  param {
    lr_mult: 2
  }
  inner_product_param {
    num_output: 3
    weight_filler {
      type: "gaussian"
      std: 0.1
    }
    bias_filler {
      type: "constant"
    }
  }
}
layer {
  name: "accuracy"
  type: "Accuracy"
  bottom: "ip2"
  bottom: "label"
  top: "accuracy"
  include {
    phase: TEST
  }
}
layer {
  name: "loss"
  type: "SoftmaxWithLoss"
  bottom: "ip2"
  bottom: "label"
  top: "loss"
}
I0121 01:14:05.878856 14881 layer_factory.hpp:76] Creating layer nuclei
I0121 01:14:05.878873 14881 net.cpp:110] Creating Layer nuclei
I0121 01:14:05.878880 14881 net.cpp:433] nuclei -> data
I0121 01:14:05.878891 14881 net.cpp:433] nuclei -> label
I0121 01:14:05.878902 14881 image_data_layer.cpp:37] Opening file /home/sanuj/Projects/nuclei-net/data/training-data/63_LLM_YR4_3_class/test.txt
I0121 01:14:05.933575 14881 image_data_layer.cpp:52] A total of 120000 images.
I0121 01:14:05.933900 14881 image_data_layer.cpp:79] output data size: 200,3,51,51
I0121 01:14:05.961110 14881 net.cpp:155] Setting up nuclei
I0121 01:14:05.961141 14881 net.cpp:163] Top shape: 200 3 51 51 (1560600)
I0121 01:14:05.961177 14881 net.cpp:163] Top shape: 200 (200)
I0121 01:14:05.961189 14881 layer_factory.hpp:76] Creating layer label_nuclei_1_split
I0121 01:14:05.961212 14881 net.cpp:110] Creating Layer label_nuclei_1_split
I0121 01:14:05.961221 14881 net.cpp:477] label_nuclei_1_split <- label
I0121 01:14:05.961232 14881 net.cpp:433] label_nuclei_1_split -> label_nuclei_1_split_0
I0121 01:14:05.961246 14881 net.cpp:433] label_nuclei_1_split -> label_nuclei_1_split_1
I0121 01:14:05.961302 14881 net.cpp:155] Setting up label_nuclei_1_split
I0121 01:14:05.961311 14881 net.cpp:163] Top shape: 200 (200)
I0121 01:14:05.961319 14881 net.cpp:163] Top shape: 200 (200)
I0121 01:14:05.961326 14881 layer_factory.hpp:76] Creating layer conv1
I0121 01:14:05.961344 14881 net.cpp:110] Creating Layer conv1
I0121 01:14:05.961352 14881 net.cpp:477] conv1 <- data
I0121 01:14:05.961362 14881 net.cpp:433] conv1 -> conv1
I0121 01:14:05.961585 14881 net.cpp:155] Setting up conv1
I0121 01:14:05.961596 14881 net.cpp:163] Top shape: 200 24 48 48 (11059200)
I0121 01:14:05.961611 14881 layer_factory.hpp:76] Creating layer pool1
I0121 01:14:05.961622 14881 net.cpp:110] Creating Layer pool1
I0121 01:14:05.961632 14881 net.cpp:477] pool1 <- conv1
I0121 01:14:05.961643 14881 net.cpp:433] pool1 -> pool1
I0121 01:14:05.961681 14881 net.cpp:155] Setting up pool1
I0121 01:14:05.961690 14881 net.cpp:163] Top shape: 200 24 24 24 (2764800)
I0121 01:14:05.961696 14881 layer_factory.hpp:76] Creating layer relu1
I0121 01:14:05.961709 14881 net.cpp:110] Creating Layer relu1
I0121 01:14:05.961715 14881 net.cpp:477] relu1 <- pool1
I0121 01:14:05.961724 14881 net.cpp:419] relu1 -> pool1 (in-place)
I0121 01:14:05.961732 14881 net.cpp:155] Setting up relu1
I0121 01:14:05.961741 14881 net.cpp:163] Top shape: 200 24 24 24 (2764800)
I0121 01:14:05.961747 14881 layer_factory.hpp:76] Creating layer conv2
I0121 01:14:05.961760 14881 net.cpp:110] Creating Layer conv2
I0121 01:14:05.961768 14881 net.cpp:477] conv2 <- pool1
I0121 01:14:05.961781 14881 net.cpp:433] conv2 -> conv2
I0121 01:14:05.966055 14881 net.cpp:155] Setting up conv2
I0121 01:14:05.966074 14881 net.cpp:163] Top shape: 200 48 19 19 (3465600)
I0121 01:14:05.966106 14881 layer_factory.hpp:76] Creating layer relu2
I0121 01:14:05.966120 14881 net.cpp:110] Creating Layer relu2
I0121 01:14:05.966126 14881 net.cpp:477] relu2 <- conv2
I0121 01:14:05.966140 14881 net.cpp:419] relu2 -> conv2 (in-place)
I0121 01:14:05.966152 14881 net.cpp:155] Setting up relu2
I0121 01:14:05.966163 14881 net.cpp:163] Top shape: 200 48 19 19 (3465600)
I0121 01:14:05.966171 14881 layer_factory.hpp:76] Creating layer pool2
I0121 01:14:05.966181 14881 net.cpp:110] Creating Layer pool2
I0121 01:14:05.966187 14881 net.cpp:477] pool2 <- conv2
I0121 01:14:05.966195 14881 net.cpp:433] pool2 -> pool2
I0121 01:14:05.966238 14881 net.cpp:155] Setting up pool2
I0121 01:14:05.966246 14881 net.cpp:163] Top shape: 200 48 10 10 (960000)
I0121 01:14:05.966253 14881 layer_factory.hpp:76] Creating layer ip_1
I0121 01:14:05.966277 14881 net.cpp:110] Creating Layer ip_1
I0121 01:14:05.966284 14881 net.cpp:477] ip_1 <- pool2
I0121 01:14:05.966294 14881 net.cpp:433] ip_1 -> ip1
I0121 01:14:06.030814 14881 net.cpp:155] Setting up ip_1
I0121 01:14:06.030844 14881 net.cpp:163] Top shape: 200 500 (100000)
I0121 01:14:06.030871 14881 layer_factory.hpp:76] Creating layer relu1
I0121 01:14:06.030892 14881 net.cpp:110] Creating Layer relu1
I0121 01:14:06.030902 14881 net.cpp:477] relu1 <- ip1
I0121 01:14:06.030913 14881 net.cpp:419] relu1 -> ip1 (in-place)
I0121 01:14:06.030930 14881 net.cpp:155] Setting up relu1
I0121 01:14:06.030939 14881 net.cpp:163] Top shape: 200 500 (100000)
I0121 01:14:06.030947 14881 layer_factory.hpp:76] Creating layer ip_2
I0121 01:14:06.030961 14881 net.cpp:110] Creating Layer ip_2
I0121 01:14:06.030969 14881 net.cpp:477] ip_2 <- ip1
I0121 01:14:06.030985 14881 net.cpp:433] ip_2 -> ip2
I0121 01:14:06.031158 14881 net.cpp:155] Setting up ip_2
I0121 01:14:06.031211 14881 net.cpp:163] Top shape: 200 3 (600)
I0121 01:14:06.031260 14881 layer_factory.hpp:76] Creating layer ip2_ip_2_0_split
I0121 01:14:06.031271 14881 net.cpp:110] Creating Layer ip2_ip_2_0_split
I0121 01:14:06.031278 14881 net.cpp:477] ip2_ip_2_0_split <- ip2
I0121 01:14:06.031304 14881 net.cpp:433] ip2_ip_2_0_split -> ip2_ip_2_0_split_0
I0121 01:14:06.031321 14881 net.cpp:433] ip2_ip_2_0_split -> ip2_ip_2_0_split_1
I0121 01:14:06.031369 14881 net.cpp:155] Setting up ip2_ip_2_0_split
I0121 01:14:06.031378 14881 net.cpp:163] Top shape: 200 3 (600)
I0121 01:14:06.031386 14881 net.cpp:163] Top shape: 200 3 (600)
I0121 01:14:06.031394 14881 layer_factory.hpp:76] Creating layer accuracy
I0121 01:14:06.031405 14881 net.cpp:110] Creating Layer accuracy
I0121 01:14:06.031414 14881 net.cpp:477] accuracy <- ip2_ip_2_0_split_0
I0121 01:14:06.031420 14881 net.cpp:477] accuracy <- label_nuclei_1_split_0
I0121 01:14:06.031431 14881 net.cpp:433] accuracy -> accuracy
I0121 01:14:06.031445 14881 net.cpp:155] Setting up accuracy
…
