…
I0116 21:12:14.021124 12881 net.cpp:339] The NetState phase (0) differed from the phase (1) specified by a rule in layer nuclei
I0116 21:12:14.021152 12881 net.cpp:339] The NetState phase (0) differed from the phase (1) specified by a rule in layer accuracy
I0116 21:12:14.021246 12881 net.cpp:50] Initializing net from parameters: 
name: "NUCLEI_three_class"
state {
  phase: TRAIN
}
layer {
  name: "nuclei"
  type: "ImageData"
  top: "data"
  top: "label"
  include {
    phase: TRAIN
  }
  image_data_param {
    source: "/home/sanuj/Projects/nuclei-net/data/training-data/78_RLM_YR4_3_class/train.txt"
    batch_size: 100
  }
}
layer {
  name: "conv1"
  type: "Convolution"
  bottom: "data"
  top: "conv1"
  param {
    lr_mult: 0.1
  }
  param {
    lr_mult: 0.2
  }
  convolution_param {
    num_output: 48
    pad: 0
    kernel_size: 4
    stride: 1
    weight_filler {
      type: "gaussian"
      std: 0.0001
    }
    bias_filler {
      type: "constant"
    }
  }
}
layer {
  name: "pool1"
  type: "Pooling"
  bottom: "conv1"
  top: "pool1"
  pooling_param {
    pool: MAX
    kernel_size: 2
    stride: 2
  }
}
layer {
  name: "relu1"
  type: "ReLU"
  bottom: "pool1"
  top: "pool1"
}
layer {
  name: "conv2"
  type: "Convolution"
  bottom: "pool1"
  top: "conv2"
  param {
    lr_mult: 0.1
  }
  param {
    lr_mult: 0.2
  }
  convolution_param {
    num_output: 48
    pad: 0
    kernel_size: 6
    stride: 1
    weight_filler {
      type: "gaussian"
      std: 0.01
    }
    bias_filler {
      type: "constant"
    }
  }
}
layer {
  name: "relu2"
  type: "ReLU"
  bottom: "conv2"
  top: "conv2"
}
layer {
  name: "pool2"
  type: "Pooling"
  bottom: "conv2"
  top: "pool2"
  pooling_param {
    pool: MAX
    kernel_size: 2
    stride: 2
  }
}
layer {
  name: "ip_1"
  type: "InnerProduct"
  bottom: "pool2"
  top: "ip1"
  param {
    lr_mult: 1
  }
  param {
    lr_mult: 2
  }
  inner_product_param {
    num_output: 30
    weight_filler {
      type: "gaussian"
      std: 0.1
    }
    bias_filler {
      type: "constant"
    }
  }
}
layer {
  name: "relu1"
  type: "ReLU"
  bottom: "ip1"
  top: "ip1"
}
layer {
  name: "ip_2"
  type: "InnerProduct"
  bottom: "ip1"
  top: "ip2"
  param {
    lr_mult: 1
  }
  param {
    lr_mult: 2
  }
  inner_product_param {
    num_output: 3
    weight_filler {
      type: "gaussian"
      std: 0.1
    }
    bias_filler {
      type: "constant"
    }
  }
}
layer {
  name: "loss"
  type: "SoftmaxWithLoss"
  bottom: "ip2"
  bottom: "label"
  top: "loss"
}
I0116 21:12:14.021323 12881 layer_factory.hpp:76] Creating layer nuclei
I0116 21:12:14.021360 12881 net.cpp:110] Creating Layer nuclei
I0116 21:12:14.021373 12881 net.cpp:433] nuclei -> data
I0116 21:12:14.021399 12881 net.cpp:433] nuclei -> label
I0116 21:12:14.021417 12881 image_data_layer.cpp:37] Opening file /home/sanuj/Projects/nuclei-net/data/training-data/78_RLM_YR4_3_class/train.txt
I0116 21:12:14.167819 12881 image_data_layer.cpp:52] A total of 300000 images.
I0116 21:12:14.174240 12881 image_data_layer.cpp:79] output data size: 100,3,51,51
I0116 21:12:14.187820 12881 net.cpp:155] Setting up nuclei
I0116 21:12:14.187861 12881 net.cpp:163] Top shape: 100 3 51 51 (780300)
I0116 21:12:14.187871 12881 net.cpp:163] Top shape: 100 (100)
I0116 21:12:14.187881 12881 layer_factory.hpp:76] Creating layer conv1
I0116 21:12:14.187912 12881 net.cpp:110] Creating Layer conv1
I0116 21:12:14.187922 12881 net.cpp:477] conv1 <- data
I0116 21:12:14.187960 12881 net.cpp:433] conv1 -> conv1
I0116 21:12:14.188781 12881 net.cpp:155] Setting up conv1
I0116 21:12:14.188799 12881 net.cpp:163] Top shape: 100 48 48 48 (11059200)
I0116 21:12:14.188822 12881 layer_factory.hpp:76] Creating layer pool1
I0116 21:12:14.188838 12881 net.cpp:110] Creating Layer pool1
I0116 21:12:14.188845 12881 net.cpp:477] pool1 <- conv1
I0116 21:12:14.188856 12881 net.cpp:433] pool1 -> pool1
I0116 21:12:14.188912 12881 net.cpp:155] Setting up pool1
I0116 21:12:14.188923 12881 net.cpp:163] Top shape: 100 48 24 24 (2764800)
I0116 21:12:14.188930 12881 layer_factory.hpp:76] Creating layer relu1
I0116 21:12:14.188941 12881 net.cpp:110] Creating Layer relu1
I0116 21:12:14.188947 12881 net.cpp:477] relu1 <- pool1
I0116 21:12:14.188956 12881 net.cpp:419] relu1 -> pool1 (in-place)
I0116 21:12:14.188964 12881 net.cpp:155] Setting up relu1
I0116 21:12:14.188973 12881 net.cpp:163] Top shape: 100 48 24 24 (2764800)
I0116 21:12:14.188979 12881 layer_factory.hpp:76] Creating layer conv2
I0116 21:12:14.188997 12881 net.cpp:110] Creating Layer conv2
I0116 21:12:14.189003 12881 net.cpp:477] conv2 <- pool1
I0116 21:12:14.189013 12881 net.cpp:433] conv2 -> conv2
I0116 21:12:14.193909 12881 net.cpp:155] Setting up conv2
I0116 21:12:14.193930 12881 net.cpp:163] Top shape: 100 48 19 19 (1732800)
I0116 21:12:14.193989 12881 layer_factory.hpp:76] Creating layer relu2
I0116 21:12:14.194026 12881 net.cpp:110] Creating Layer relu2
I0116 21:12:14.194048 12881 net.cpp:477] relu2 <- conv2
I0116 21:12:14.194070 12881 net.cpp:419] relu2 -> conv2 (in-place)
I0116 21:12:14.194097 12881 net.cpp:155] Setting up relu2
I0116 21:12:14.194119 12881 net.cpp:163] Top shape: 100 48 19 19 (1732800)
I0116 21:12:14.194140 12881 layer_factory.hpp:76] Creating layer pool2
I0116 21:12:14.194172 12881 net.cpp:110] Creating Layer pool2
I0116 21:12:14.194193 12881 net.cpp:477] pool2 <- conv2
I0116 21:12:14.194214 12881 net.cpp:433] pool2 -> pool2
I0116 21:12:14.194288 12881 net.cpp:155] Setting up pool2
I0116 21:12:14.194315 12881 net.cpp:163] Top shape: 100 48 10 10 (480000)
I0116 21:12:14.194337 12881 layer_factory.hpp:76] Creating layer ip_1
I0116 21:12:14.194365 12881 net.cpp:110] Creating Layer ip_1
I0116 21:12:14.194387 12881 net.cpp:477] ip_1 <- pool2
I0116 21:12:14.194413 12881 net.cpp:433] ip_1 -> ip1
I0116 21:12:14.199700 12881 net.cpp:155] Setting up ip_1
I0116 21:12:14.199728 12881 net.cpp:163] Top shape: 100 30 (3000)
I0116 21:12:14.199750 12881 layer_factory.hpp:76] Creating layer relu1
I0116 21:12:14.199774 12881 net.cpp:110] Creating Layer relu1
I0116 21:12:14.199782 12881 net.cpp:477] relu1 <- ip1
I0116 21:12:14.199792 12881 net.cpp:419] relu1 -> ip1 (in-place)
I0116 21:12:14.199805 12881 net.cpp:155] Setting up relu1
I0116 21:12:14.199816 12881 net.cpp:163] Top shape: 100 30 (3000)
I0116 21:12:14.199823 12881 layer_factory.hpp:76] Creating layer ip_2
I0116 21:12:14.199836 12881 net.cpp:110] Creating Layer ip_2
I0116 21:12:14.199841 12881 net.cpp:477] ip_2 <- ip1
I0116 21:12:14.199852 12881 net.cpp:433] ip_2 -> ip2
I0116 21:12:14.200043 12881 net.cpp:155] Setting up ip_2
I0116 21:12:14.200055 12881 net.cpp:163] Top shape: 100 3 (300)
I0116 21:12:14.200067 12881 layer_factory.hpp:76] Creating layer loss
I0116 21:12:14.200080 12881 net.cpp:110] Creating Layer loss
I0116 21:12:14.200089 12881 net.cpp:477] loss <- ip2
I0116 21:12:14.200096 12881 net.cpp:477] loss <- label
I0116 21:12:14.200109 12881 net.cpp:433] loss -> loss
I0116 21:12:14.200124 12881 layer_factory.hpp:76] Creating layer loss
I0116 21:12:14.200256 12881 net.cpp:155] Setting up loss
…
I0116 21:12:14.200853 12881 solver.cpp:187] Creating test net (#0) specified by net file: /home/sanuj/Projects/nuclei-net/caffe-scripts/nuclei/three_class/three_class_nuclei_train_test.prototxt
I0116 21:12:14.200896 12881 net.cpp:339] The NetState phase (1) differed from the phase (0) specified by a rule in layer nuclei
I0116 21:12:14.201042 12881 net.cpp:50] Initializing net from parameters: 
name: "NUCLEI_three_class"
state {
  phase: TEST
}
layer {
  name: "nuclei"
  type: "ImageData"
  top: "data"
  top: "label"
  include {
    phase: TEST
  }
  image_data_param {
    source: "/home/sanuj/Projects/nuclei-net/data/training-data/63_LLM_YR4_3_class/test.txt"
    batch_size: 200
  }
}
layer {
  name: "conv1"
  type: "Convolution"
  bottom: "data"
  top: "conv1"
  param {
    lr_mult: 0.1
  }
  param {
    lr_mult: 0.2
  }
  convolution_param {
    num_output: 48
    pad: 0
    kernel_size: 4
    stride: 1
    weight_filler {
      type: "gaussian"
      std: 0.0001
    }
    bias_filler {
      type: "constant"
    }
  }
}
layer {
  name: "pool1"
  type: "Pooling"
  bottom: "conv1"
  top: "pool1"
  pooling_param {
    pool: MAX
    kernel_size: 2
    stride: 2
  }
}
layer {
  name: "relu1"
  type: "ReLU"
  bottom: "pool1"
  top: "pool1"
}
layer {
  name: "conv2"
  type: "Convolution"
  bottom: "pool1"
  top: "conv2"
  param {
    lr_mult: 0.1
  }
  param {
    lr_mult: 0.2
  }
  convolution_param {
    num_output: 48
    pad: 0
    kernel_size: 6
    stride: 1
    weight_filler {
      type: "gaussian"
      std: 0.01
    }
    bias_filler {
      type: "constant"
    }
  }
}
layer {
  name: "relu2"
  type: "ReLU"
  bottom: "conv2"
  top: "conv2"
}
layer {
  name: "pool2"
  type: "Pooling"
  bottom: "conv2"
  top: "pool2"
  pooling_param {
    pool: MAX
    kernel_size: 2
    stride: 2
  }
}
layer {
  name: "ip_1"
  type: "InnerProduct"
  bottom: "pool2"
  top: "ip1"
  param {
    lr_mult: 1
  }
  param {
    lr_mult: 2
  }
  inner_product_param {
    num_output: 30
    weight_filler {
      type: "gaussian"
      std: 0.1
    }
    bias_filler {
      type: "constant"
    }
  }
}
layer {
  name: "relu1"
  type: "ReLU"
  bottom: "ip1"
  top: "ip1"
}
layer {
  name: "ip_2"
  type: "InnerProduct"
  bottom: "ip1"
  top: "ip2"
  param {
    lr_mult: 1
  }
  param {
    lr_mult: 2
  }
  inner_product_param {
    num_output: 3
    weight_filler {
      type: "gaussian"
      std: 0.1
    }
    bias_filler {
      type: "constant"
    }
  }
}
layer {
  name: "accuracy"
  type: "Accuracy"
  bottom: "ip2"
  bottom: "label"
  top: "accuracy"
  include {
    phase: TEST
  }
}
layer {
  name: "loss"
  type: "SoftmaxWithLoss"
  bottom: "ip2"
  bottom: "label"
  top: "loss"
}
I0116 21:12:14.201143 12881 layer_factory.hpp:76] Creating layer nuclei
I0116 21:12:14.201164 12881 net.cpp:110] Creating Layer nuclei
I0116 21:12:14.201171 12881 net.cpp:433] nuclei -> data
I0116 21:12:14.201184 12881 net.cpp:433] nuclei -> label
I0116 21:12:14.201197 12881 image_data_layer.cpp:37] Opening file /home/sanuj/Projects/nuclei-net/data/training-data/63_LLM_YR4_3_class/test.txt
I0116 21:12:14.258472 12881 image_data_layer.cpp:52] A total of 120000 images.
I0116 21:12:14.258759 12881 image_data_layer.cpp:79] output data size: 200,3,51,51
I0116 21:12:14.283301 12881 net.cpp:155] Setting up nuclei
I0116 21:12:14.283335 12881 net.cpp:163] Top shape: 200 3 51 51 (1560600)
I0116 21:12:14.283370 12881 net.cpp:163] Top shape: 200 (200)
I0116 21:12:14.283409 12881 layer_factory.hpp:76] Creating layer label_nuclei_1_split
I0116 21:12:14.283432 12881 net.cpp:110] Creating Layer label_nuclei_1_split
I0116 21:12:14.283440 12881 net.cpp:477] label_nuclei_1_split <- label
I0116 21:12:14.283452 12881 net.cpp:433] label_nuclei_1_split -> label_nuclei_1_split_0
I0116 21:12:14.283464 12881 net.cpp:433] label_nuclei_1_split -> label_nuclei_1_split_1
I0116 21:12:14.283519 12881 net.cpp:155] Setting up label_nuclei_1_split
I0116 21:12:14.283527 12881 net.cpp:163] Top shape: 200 (200)
I0116 21:12:14.283535 12881 net.cpp:163] Top shape: 200 (200)
I0116 21:12:14.283541 12881 layer_factory.hpp:76] Creating layer conv1
I0116 21:12:14.283556 12881 net.cpp:110] Creating Layer conv1
I0116 21:12:14.283566 12881 net.cpp:477] conv1 <- data
I0116 21:12:14.283578 12881 net.cpp:433] conv1 -> conv1
I0116 21:12:14.283821 12881 net.cpp:155] Setting up conv1
I0116 21:12:14.283833 12881 net.cpp:163] Top shape: 200 48 48 48 (22118400)
I0116 21:12:14.283850 12881 layer_factory.hpp:76] Creating layer pool1
I0116 21:12:14.283861 12881 net.cpp:110] Creating Layer pool1
I0116 21:12:14.283869 12881 net.cpp:477] pool1 <- conv1
I0116 21:12:14.283879 12881 net.cpp:433] pool1 -> pool1
I0116 21:12:14.283915 12881 net.cpp:155] Setting up pool1
I0116 21:12:14.283922 12881 net.cpp:163] Top shape: 200 48 24 24 (5529600)
I0116 21:12:14.283929 12881 layer_factory.hpp:76] Creating layer relu1
I0116 21:12:14.283941 12881 net.cpp:110] Creating Layer relu1
I0116 21:12:14.283947 12881 net.cpp:477] relu1 <- pool1
I0116 21:12:14.283956 12881 net.cpp:419] relu1 -> pool1 (in-place)
I0116 21:12:14.283964 12881 net.cpp:155] Setting up relu1
I0116 21:12:14.283973 12881 net.cpp:163] Top shape: 200 48 24 24 (5529600)
I0116 21:12:14.283979 12881 layer_factory.hpp:76] Creating layer conv2
I0116 21:12:14.283992 12881 net.cpp:110] Creating Layer conv2
I0116 21:12:14.283999 12881 net.cpp:477] conv2 <- pool1
I0116 21:12:14.284010 12881 net.cpp:433] conv2 -> conv2
I0116 21:12:14.292260 12881 net.cpp:155] Setting up conv2
I0116 21:12:14.292289 12881 net.cpp:163] Top shape: 200 48 19 19 (3465600)
I0116 21:12:14.292309 12881 layer_factory.hpp:76] Creating layer relu2
I0116 21:12:14.292321 12881 net.cpp:110] Creating Layer relu2
I0116 21:12:14.292327 12881 net.cpp:477] relu2 <- conv2
I0116 21:12:14.292336 12881 net.cpp:419] relu2 -> conv2 (in-place)
I0116 21:12:14.292347 12881 net.cpp:155] Setting up relu2
I0116 21:12:14.292354 12881 net.cpp:163] Top shape: 200 48 19 19 (3465600)
I0116 21:12:14.292361 12881 layer_factory.hpp:76] Creating layer pool2
I0116 21:12:14.292371 12881 net.cpp:110] Creating Layer pool2
I0116 21:12:14.292377 12881 net.cpp:477] pool2 <- conv2
I0116 21:12:14.292385 12881 net.cpp:433] pool2 -> pool2
I0116 21:12:14.292428 12881 net.cpp:155] Setting up pool2
I0116 21:12:14.292440 12881 net.cpp:163] Top shape: 200 48 10 10 (960000)
I0116 21:12:14.292445 12881 layer_factory.hpp:76] Creating layer ip_1
I0116 21:12:14.292472 12881 net.cpp:110] Creating Layer ip_1
I0116 21:12:14.292479 12881 net.cpp:477] ip_1 <- pool2
I0116 21:12:14.292490 12881 net.cpp:433] ip_1 -> ip1
I0116 21:12:14.296073 12881 net.cpp:155] Setting up ip_1
I0116 21:12:14.296094 12881 net.cpp:163] Top shape: 200 30 (6000)
I0116 21:12:14.296109 12881 layer_factory.hpp:76] Creating layer relu1
I0116 21:12:14.296121 12881 net.cpp:110] Creating Layer relu1
I0116 21:12:14.296131 12881 net.cpp:477] relu1 <- ip1
I0116 21:12:14.296139 12881 net.cpp:419] relu1 -> ip1 (in-place)
I0116 21:12:14.296149 12881 net.cpp:155] Setting up relu1
I0116 21:12:14.296157 12881 net.cpp:163] Top shape: 200 30 (6000)
I0116 21:12:14.296164 12881 layer_factory.hpp:76] Creating layer ip_2
I0116 21:12:14.296172 12881 net.cpp:110] Creating Layer ip_2
I0116 21:12:14.296178 12881 net.cpp:477] ip_2 <- ip1
I0116 21:12:14.296191 12881 net.cpp:433] ip_2 -> ip2
I0116 21:12:14.296290 12881 net.cpp:155] Setting up ip_2
I0116 21:12:14.296299 12881 net.cpp:163] Top shape: 200 3 (600)
I0116 21:12:14.296308 12881 layer_factory.hpp:76] Creating layer ip2_ip_2_0_split
I0116 21:12:14.296341 12881 net.cpp:110] Creating Layer ip2_ip_2_0_split
I0116 21:12:14.296352 12881 net.cpp:477] ip2_ip_2_0_split <- ip2
I0116 21:12:14.296361 12881 net.cpp:433] ip2_ip_2_0_split -> ip2_ip_2_0_split_0
I0116 21:12:14.296371 12881 net.cpp:433] ip2_ip_2_0_split -> ip2_ip_2_0_split_1
I0116 21:12:14.296411 12881 net.cpp:155] Setting up ip2_ip_2_0_split
I0116 21:12:14.296418 12881 net.cpp:163] Top shape: 200 3 (600)
I0116 21:12:14.296425 12881 net.cpp:163] Top shape: 200 3 (600)
I0116 21:12:14.296432 12881 layer_factory.hpp:76] Creating layer accuracy
I0116 21:12:14.296440 12881 net.cpp:110] Creating Layer accuracy
I0116 21:12:14.296448 12881 net.cpp:477] accuracy <- ip2_ip_2_0_split_0
I0116 21:12:14.296455 12881 net.cpp:477] accuracy <- label_nuclei_1_split_0
I0116 21:12:14.296464 12881 net.cpp:433] accuracy -> accuracy
I0116 21:12:14.296478 12881 net.cpp:155] Setting up accuracy
…
