…
I0126 18:26:04.728679 16571 net.cpp:339] The NetState phase (0) differed from the phase (1) specified by a rule in layer nuclei
I0126 18:26:04.728704 16571 net.cpp:339] The NetState phase (0) differed from the phase (1) specified by a rule in layer accuracy
I0126 18:26:04.728778 16571 net.cpp:50] Initializing net from parameters: 
name: "NUCLEI_three_class"
state {
  phase: TRAIN
}
layer {
  name: "nuclei"
  type: "Data"
  top: "data"
  top: "label"
  include {
    phase: TRAIN
  }
  data_param {
    source: "/home/sanuj/Projects/nuclei-net/data/training-data/78_RLM_YR4_3_class_31/train_lmdb"
    batch_size: 100
    backend: LMDB
  }
}
layer {
  name: "conv1"
  type: "Convolution"
  bottom: "data"
  top: "conv1"
  param {
    lr_mult: 0.1
  }
  param {
    lr_mult: 0.2
  }
  convolution_param {
    num_output: 48
    pad: 0
    kernel_size: 6
    stride: 1
    weight_filler {
      type: "gaussian"
      std: 0.01
    }
    bias_filler {
      type: "constant"
      value: 0.7
    }
  }
}
layer {
  name: "relu1"
  type: "ReLU"
  bottom: "conv1"
  top: "conv1"
}
layer {
  name: "pool1"
  type: "Pooling"
  bottom: "conv1"
  top: "pool1"
  pooling_param {
    pool: MAX
    kernel_size: 2
    stride: 2
  }
}
layer {
  name: "conv2"
  type: "Convolution"
  bottom: "pool1"
  top: "conv2"
  param {
    lr_mult: 0.1
  }
  param {
    lr_mult: 0.2
  }
  convolution_param {
    num_output: 48
    pad: 0
    kernel_size: 4
    stride: 1
    weight_filler {
      type: "gaussian"
      std: 0.01
    }
    bias_filler {
      type: "constant"
      value: 0.7
    }
  }
}
layer {
  name: "relu2"
  type: "ReLU"
  bottom: "conv2"
  top: "conv2"
}
layer {
  name: "pool2"
  type: "Pooling"
  bottom: "conv2"
  top: "pool2"
  pooling_param {
    pool: MAX
    kernel_size: 2
    stride: 2
  }
}
layer {
  name: "ip1"
  type: "InnerProduct"
  bottom: "pool2"
  top: "ip1"
  param {
    lr_mult: 1
  }
  param {
    lr_mult: 2
  }
  inner_product_param {
    num_output: 30
    weight_filler {
      type: "gaussian"
      std: 0.01
    }
    bias_filler {
      type: "constant"
      value: 0.1
    }
  }
}
layer {
  name: "relu5"
  type: "ReLU"
  bottom: "ip1"
  top: "ip1"
}
layer {
  name: "ip2"
  type: "InnerProduct"
  bottom: "ip1"
  top: "ip2"
  param {
    lr_mult: 1
  }
  param {
    lr_mult: 2
  }
  inner_product_param {
    num_output: 3
    weight_filler {
      type: "gaussian"
      std: 0.1
    }
    bias_filler {
      type: "constant"
    }
  }
}
layer {
  name: "loss"
  type: "SoftmaxWithLoss"
  bottom: "ip2"
  bottom: "label"
  top: "loss"
}
I0126 18:26:04.728852 16571 layer_factory.hpp:76] Creating layer nuclei
I0126 18:26:04.729420 16571 net.cpp:110] Creating Layer nuclei
I0126 18:26:04.729434 16571 net.cpp:433] nuclei -> data
I0126 18:26:04.729463 16571 net.cpp:433] nuclei -> label
I0126 18:26:04.730265 16575 db_lmdb.cpp:23] Opened lmdb /home/sanuj/Projects/nuclei-net/data/training-data/78_RLM_YR4_3_class_31/train_lmdb
I0126 18:26:04.736531 16571 data_layer.cpp:45] output data size: 100,3,31,31
I0126 18:26:04.744099 16571 net.cpp:155] Setting up nuclei
I0126 18:26:04.744138 16571 net.cpp:163] Top shape: 100 3 31 31 (288300)
I0126 18:26:04.744148 16571 net.cpp:163] Top shape: 100 (100)
I0126 18:26:04.744160 16571 layer_factory.hpp:76] Creating layer conv1
I0126 18:26:04.744207 16571 net.cpp:110] Creating Layer conv1
I0126 18:26:04.744241 16571 net.cpp:477] conv1 <- data
I0126 18:26:04.744287 16571 net.cpp:433] conv1 -> conv1
I0126 18:26:04.745573 16571 net.cpp:155] Setting up conv1
I0126 18:26:04.745697 16571 net.cpp:163] Top shape: 100 48 26 26 (3244800)
I0126 18:26:04.745726 16571 layer_factory.hpp:76] Creating layer relu1
I0126 18:26:04.745740 16571 net.cpp:110] Creating Layer relu1
I0126 18:26:04.745749 16571 net.cpp:477] relu1 <- conv1
I0126 18:26:04.745762 16571 net.cpp:419] relu1 -> conv1 (in-place)
I0126 18:26:04.745776 16571 net.cpp:155] Setting up relu1
I0126 18:26:04.745786 16571 net.cpp:163] Top shape: 100 48 26 26 (3244800)
I0126 18:26:04.745793 16571 layer_factory.hpp:76] Creating layer pool1
I0126 18:26:04.745802 16571 net.cpp:110] Creating Layer pool1
I0126 18:26:04.745810 16571 net.cpp:477] pool1 <- conv1
I0126 18:26:04.745817 16571 net.cpp:433] pool1 -> pool1
I0126 18:26:04.746359 16571 net.cpp:155] Setting up pool1
I0126 18:26:04.746371 16571 net.cpp:163] Top shape: 100 48 13 13 (811200)
I0126 18:26:04.746379 16571 layer_factory.hpp:76] Creating layer conv2
I0126 18:26:04.746428 16571 net.cpp:110] Creating Layer conv2
I0126 18:26:04.746436 16571 net.cpp:477] conv2 <- pool1
I0126 18:26:04.746450 16571 net.cpp:433] conv2 -> conv2
I0126 18:26:04.747987 16571 net.cpp:155] Setting up conv2
I0126 18:26:04.748004 16571 net.cpp:163] Top shape: 100 48 10 10 (480000)
I0126 18:26:04.748019 16571 layer_factory.hpp:76] Creating layer relu2
I0126 18:26:04.748033 16571 net.cpp:110] Creating Layer relu2
I0126 18:26:04.748039 16571 net.cpp:477] relu2 <- conv2
I0126 18:26:04.748051 16571 net.cpp:419] relu2 -> conv2 (in-place)
I0126 18:26:04.748062 16571 net.cpp:155] Setting up relu2
I0126 18:26:04.748071 16571 net.cpp:163] Top shape: 100 48 10 10 (480000)
I0126 18:26:04.748078 16571 layer_factory.hpp:76] Creating layer pool2
I0126 18:26:04.748087 16571 net.cpp:110] Creating Layer pool2
I0126 18:26:04.748095 16571 net.cpp:477] pool2 <- conv2
I0126 18:26:04.748102 16571 net.cpp:433] pool2 -> pool2
I0126 18:26:04.748143 16571 net.cpp:155] Setting up pool2
I0126 18:26:04.748152 16571 net.cpp:163] Top shape: 100 48 5 5 (120000)
I0126 18:26:04.748158 16571 layer_factory.hpp:76] Creating layer ip1
I0126 18:26:04.748168 16571 net.cpp:110] Creating Layer ip1
I0126 18:26:04.748174 16571 net.cpp:477] ip1 <- pool2
I0126 18:26:04.748184 16571 net.cpp:433] ip1 -> ip1
I0126 18:26:04.749138 16571 net.cpp:155] Setting up ip1
I0126 18:26:04.749150 16571 net.cpp:163] Top shape: 100 30 (3000)
I0126 18:26:04.749162 16571 layer_factory.hpp:76] Creating layer relu5
I0126 18:26:04.749176 16571 net.cpp:110] Creating Layer relu5
I0126 18:26:04.749183 16571 net.cpp:477] relu5 <- ip1
I0126 18:26:04.749240 16571 net.cpp:419] relu5 -> ip1 (in-place)
I0126 18:26:04.749253 16571 net.cpp:155] Setting up relu5
I0126 18:26:04.749260 16571 net.cpp:163] Top shape: 100 30 (3000)
I0126 18:26:04.749267 16571 layer_factory.hpp:76] Creating layer ip2
I0126 18:26:04.749282 16571 net.cpp:110] Creating Layer ip2
I0126 18:26:04.749290 16571 net.cpp:477] ip2 <- ip1
I0126 18:26:04.749300 16571 net.cpp:433] ip2 -> ip2
I0126 18:26:04.749390 16571 net.cpp:155] Setting up ip2
I0126 18:26:04.749430 16571 net.cpp:163] Top shape: 100 3 (300)
I0126 18:26:04.749444 16571 layer_factory.hpp:76] Creating layer loss
I0126 18:26:04.749460 16571 net.cpp:110] Creating Layer loss
I0126 18:26:04.749467 16571 net.cpp:477] loss <- ip2
I0126 18:26:04.749481 16571 net.cpp:477] loss <- label
I0126 18:26:04.749496 16571 net.cpp:433] loss -> loss
I0126 18:26:04.749511 16571 layer_factory.hpp:76] Creating layer loss
I0126 18:26:04.749635 16571 net.cpp:155] Setting up loss
…
I0126 18:26:04.750190 16571 solver.cpp:187] Creating test net (#0) specified by net file: /home/sanuj/Projects/nuclei-net/caffe-scripts/nuclei/three_class/arch_4/train_test.prototxt
I0126 18:26:04.750229 16571 net.cpp:339] The NetState phase (1) differed from the phase (0) specified by a rule in layer nuclei
I0126 18:26:04.750329 16571 net.cpp:50] Initializing net from parameters: 
name: "NUCLEI_three_class"
state {
  phase: TEST
}
layer {
  name: "nuclei"
  type: "Data"
  top: "data"
  top: "label"
  include {
    phase: TEST
  }
  data_param {
    source: "/home/sanuj/Projects/nuclei-net/data/training-data/63_LLM_YR4_3_class_31/test_lmdb"
    batch_size: 100
    backend: LMDB
  }
}
layer {
  name: "conv1"
  type: "Convolution"
  bottom: "data"
  top: "conv1"
  param {
    lr_mult: 0.1
  }
  param {
    lr_mult: 0.2
  }
  convolution_param {
    num_output: 48
    pad: 0
    kernel_size: 6
    stride: 1
    weight_filler {
      type: "gaussian"
      std: 0.01
    }
    bias_filler {
      type: "constant"
      value: 0.7
    }
  }
}
layer {
  name: "relu1"
  type: "ReLU"
  bottom: "conv1"
  top: "conv1"
}
layer {
  name: "pool1"
  type: "Pooling"
  bottom: "conv1"
  top: "pool1"
  pooling_param {
    pool: MAX
    kernel_size: 2
    stride: 2
  }
}
layer {
  name: "conv2"
  type: "Convolution"
  bottom: "pool1"
  top: "conv2"
  param {
    lr_mult: 0.1
  }
  param {
    lr_mult: 0.2
  }
  convolution_param {
    num_output: 48
    pad: 0
    kernel_size: 4
    stride: 1
    weight_filler {
      type: "gaussian"
      std: 0.01
    }
    bias_filler {
      type: "constant"
      value: 0.7
    }
  }
}
layer {
  name: "relu2"
  type: "ReLU"
  bottom: "conv2"
  top: "conv2"
}
layer {
  name: "pool2"
  type: "Pooling"
  bottom: "conv2"
  top: "pool2"
  pooling_param {
    pool: MAX
    kernel_size: 2
    stride: 2
  }
}
layer {
  name: "ip1"
  type: "InnerProduct"
  bottom: "pool2"
  top: "ip1"
  param {
    lr_mult: 1
  }
  param {
    lr_mult: 2
  }
  inner_product_param {
    num_output: 30
    weight_filler {
      type: "gaussian"
      std: 0.01
    }
    bias_filler {
      type: "constant"
      value: 0.1
    }
  }
}
layer {
  name: "relu5"
  type: "ReLU"
  bottom: "ip1"
  top: "ip1"
}
layer {
  name: "ip2"
  type: "InnerProduct"
  bottom: "ip1"
  top: "ip2"
  param {
    lr_mult: 1
  }
  param {
    lr_mult: 2
  }
  inner_product_param {
    num_output: 3
    weight_filler {
      type: "gaussian"
      std: 0.1
    }
    bias_filler {
      type: "constant"
    }
  }
}
layer {
  name: "accuracy"
  type: "Accuracy"
  bottom: "ip2"
  bottom: "label"
  top: "accuracy"
  include {
    phase: TEST
  }
}
layer {
  name: "loss"
  type: "SoftmaxWithLoss"
  bottom: "ip2"
  bottom: "label"
  top: "loss"
}
I0126 18:26:04.750424 16571 layer_factory.hpp:76] Creating layer nuclei
I0126 18:26:04.750560 16571 net.cpp:110] Creating Layer nuclei
I0126 18:26:04.750571 16571 net.cpp:433] nuclei -> data
I0126 18:26:04.750583 16571 net.cpp:433] nuclei -> label
I0126 18:26:04.752037 16577 db_lmdb.cpp:23] Opened lmdb /home/sanuj/Projects/nuclei-net/data/training-data/63_LLM_YR4_3_class_31/test_lmdb
I0126 18:26:04.752168 16571 data_layer.cpp:45] output data size: 100,3,31,31
I0126 18:26:04.762538 16571 net.cpp:155] Setting up nuclei
I0126 18:26:04.762576 16571 net.cpp:163] Top shape: 100 3 31 31 (288300)
I0126 18:26:04.762585 16571 net.cpp:163] Top shape: 100 (100)
I0126 18:26:04.762594 16571 layer_factory.hpp:76] Creating layer label_nuclei_1_split
I0126 18:26:04.762642 16571 net.cpp:110] Creating Layer label_nuclei_1_split
I0126 18:26:04.762650 16571 net.cpp:477] label_nuclei_1_split <- label
I0126 18:26:04.762662 16571 net.cpp:433] label_nuclei_1_split -> label_nuclei_1_split_0
I0126 18:26:04.762679 16571 net.cpp:433] label_nuclei_1_split -> label_nuclei_1_split_1
I0126 18:26:04.762739 16571 net.cpp:155] Setting up label_nuclei_1_split
I0126 18:26:04.762751 16571 net.cpp:163] Top shape: 100 (100)
I0126 18:26:04.762759 16571 net.cpp:163] Top shape: 100 (100)
I0126 18:26:04.762765 16571 layer_factory.hpp:76] Creating layer conv1
I0126 18:26:04.762778 16571 net.cpp:110] Creating Layer conv1
I0126 18:26:04.762784 16571 net.cpp:477] conv1 <- data
I0126 18:26:04.762795 16571 net.cpp:433] conv1 -> conv1
I0126 18:26:04.763262 16571 net.cpp:155] Setting up conv1
I0126 18:26:04.763276 16571 net.cpp:163] Top shape: 100 48 26 26 (3244800)
I0126 18:26:04.763293 16571 layer_factory.hpp:76] Creating layer relu1
I0126 18:26:04.763303 16571 net.cpp:110] Creating Layer relu1
I0126 18:26:04.763309 16571 net.cpp:477] relu1 <- conv1
I0126 18:26:04.763315 16571 net.cpp:419] relu1 -> conv1 (in-place)
I0126 18:26:04.763324 16571 net.cpp:155] Setting up relu1
I0126 18:26:04.763332 16571 net.cpp:163] Top shape: 100 48 26 26 (3244800)
I0126 18:26:04.763339 16571 layer_factory.hpp:76] Creating layer pool1
I0126 18:26:04.763350 16571 net.cpp:110] Creating Layer pool1
I0126 18:26:04.763355 16571 net.cpp:477] pool1 <- conv1
I0126 18:26:04.763362 16571 net.cpp:433] pool1 -> pool1
I0126 18:26:04.764225 16571 net.cpp:155] Setting up pool1
I0126 18:26:04.764256 16571 net.cpp:163] Top shape: 100 48 13 13 (811200)
I0126 18:26:04.764293 16571 layer_factory.hpp:76] Creating layer conv2
I0126 18:26:04.764360 16571 net.cpp:110] Creating Layer conv2
I0126 18:26:04.764374 16571 net.cpp:477] conv2 <- pool1
I0126 18:26:04.764415 16571 net.cpp:433] conv2 -> conv2
I0126 18:26:04.765548 16571 net.cpp:155] Setting up conv2
I0126 18:26:04.765559 16571 net.cpp:163] Top shape: 100 48 10 10 (480000)
I0126 18:26:04.765609 16571 layer_factory.hpp:76] Creating layer relu2
I0126 18:26:04.765619 16571 net.cpp:110] Creating Layer relu2
I0126 18:26:04.765666 16571 net.cpp:477] relu2 <- conv2
I0126 18:26:04.765724 16571 net.cpp:419] relu2 -> conv2 (in-place)
I0126 18:26:04.765760 16571 net.cpp:155] Setting up relu2
I0126 18:26:04.765769 16571 net.cpp:163] Top shape: 100 48 10 10 (480000)
I0126 18:26:04.765801 16571 layer_factory.hpp:76] Creating layer pool2
I0126 18:26:04.765858 16571 net.cpp:110] Creating Layer pool2
I0126 18:26:04.765866 16571 net.cpp:477] pool2 <- conv2
I0126 18:26:04.765923 16571 net.cpp:433] pool2 -> pool2
I0126 18:26:04.765990 16571 net.cpp:155] Setting up pool2
I0126 18:26:04.766000 16571 net.cpp:163] Top shape: 100 48 5 5 (120000)
I0126 18:26:04.766031 16571 layer_factory.hpp:76] Creating layer ip1
I0126 18:26:04.766091 16571 net.cpp:110] Creating Layer ip1
I0126 18:26:04.766099 16571 net.cpp:477] ip1 <- pool2
I0126 18:26:04.766157 16571 net.cpp:433] ip1 -> ip1
I0126 18:26:04.767987 16571 net.cpp:155] Setting up ip1
I0126 18:26:04.768003 16571 net.cpp:163] Top shape: 100 30 (3000)
I0126 18:26:04.768080 16571 layer_factory.hpp:76] Creating layer relu5
I0126 18:26:04.768091 16571 net.cpp:110] Creating Layer relu5
I0126 18:26:04.768124 16571 net.cpp:477] relu5 <- ip1
I0126 18:26:04.768184 16571 net.cpp:419] relu5 -> ip1 (in-place)
I0126 18:26:04.768196 16571 net.cpp:155] Setting up relu5
I0126 18:26:04.768205 16571 net.cpp:163] Top shape: 100 30 (3000)
I0126 18:26:04.768211 16571 layer_factory.hpp:76] Creating layer ip2
I0126 18:26:04.768223 16571 net.cpp:110] Creating Layer ip2
I0126 18:26:04.768229 16571 net.cpp:477] ip2 <- ip1
I0126 18:26:04.768240 16571 net.cpp:433] ip2 -> ip2
I0126 18:26:04.768332 16571 net.cpp:155] Setting up ip2
I0126 18:26:04.768342 16571 net.cpp:163] Top shape: 100 3 (300)
I0126 18:26:04.768350 16571 layer_factory.hpp:76] Creating layer ip2_ip2_0_split
I0126 18:26:04.768360 16571 net.cpp:110] Creating Layer ip2_ip2_0_split
I0126 18:26:04.768367 16571 net.cpp:477] ip2_ip2_0_split <- ip2
I0126 18:26:04.768388 16571 net.cpp:433] ip2_ip2_0_split -> ip2_ip2_0_split_0
I0126 18:26:04.768400 16571 net.cpp:433] ip2_ip2_0_split -> ip2_ip2_0_split_1
I0126 18:26:04.768435 16571 net.cpp:155] Setting up ip2_ip2_0_split
I0126 18:26:04.768443 16571 net.cpp:163] Top shape: 100 3 (300)
I0126 18:26:04.768451 16571 net.cpp:163] Top shape: 100 3 (300)
I0126 18:26:04.768457 16571 layer_factory.hpp:76] Creating layer accuracy
I0126 18:26:04.768471 16571 net.cpp:110] Creating Layer accuracy
I0126 18:26:04.768477 16571 net.cpp:477] accuracy <- ip2_ip2_0_split_0
I0126 18:26:04.768484 16571 net.cpp:477] accuracy <- label_nuclei_1_split_0
I0126 18:26:04.768493 16571 net.cpp:433] accuracy -> accuracy
I0126 18:26:04.768504 16571 net.cpp:155] Setting up accuracy
…
